Inference_pytorch/log/DenseNet40.pth (torch_old, 747794 bytes, 196 tensors)

conv1.0.weight f4 [24, 3, 3, 3]
00000000: dc04 df3d 3160 263e b42c 9e3d a382 e73c
00000010: 2af2 2d3e 067f 9b3c efa5 0f3d 3a4c 703c
00000020: 16c2 133c a12b 953d b2a3 073e 0613 f13d
00000030: 7668 2b3d 7c8b 293d c5a4 3ebd 7af5 0c3e
00000040: 63a0 523d b589 9abd 1156 a23d e382 3e3d
00000050: 8068 1dbd 0dea f2bc f143 abbd f3cd 93bc
00000060: 74ae 77bc 9f88 07bd 0eb4 dabd ef41 a03e
00000070: 8172 fb3e 67f0 b1bc dc8e 5b3e 6ae6 a73d
00000080: ae69 e3bd b4c1 abbe 489e c7be 1abe 88be
00000090: 08f8 2e3e 1d33 0b3f 6ff3 373e d27a 583d
000000a0: 567f 133e 6c24 1d3e 88d5 22bf c688 19bf
000000b0: 4356 a7be b63c 463e 0ba3 c73e 2d80 9b3e
000000c0: 886e 713d 507c fb3d a099 333e 0d5e 7dbe
000000d0: 61c1 12bf 372a 8abe 6463 a7bb c4b9 363c
000000e0: 5663 abbc e8cf 2aba 2e02 efb9 e67f c5bb
000000f0: ad75 8fbb 2e5a d5bc 2e43 373d 5433 4e39
00000100: 092b 46bd 2c8f 47ba 5a19 5d3a d83e 7039
00000110: f712 ee39 4e68 fcbc 6fe5 36bb babc 33bd
00000120: 4b4b b13b 15e3 98bb 0ee1 49bc 0133 0dbd
00000130: b378 b13b 9de5 cebb 4edc 3cbc ad5d 00bb
00000140: 6703 a2bc 90c0 c23e df83 733d 5bcf 90bc
00000150: 89d1 0b3e e6c2 5d3d db2f aa3b 7d0d 0abf
00000160: 1c0b 4d3d 4b2c 83bc e348 ba3d 8379 29bd
00000170: d8dc 52bd 0320 82be f311 69bd f36a 0f3e
00000180: 63fa 20bf bb3e 9e3e cbfd d83e 99c9 a43d
00000190: 6b22 2fbe b832 d2be 1880 123e ab82 65bc
000001a0: 3bdd c2bd f224 cfbd 2424 ba3e ad7f 423e
000001b0: 0aa2 c13c 5abb e7bd 7b42 08be d92e 613e
000001c0: 337a 013d 6249 f23d 9661 473b 64a8 473c
000001d0: 800a 96bd 3891 55be 614e fbbe 0593 cebe
000001e0: 8dd9 393e b4d5 bebd 4c0e 8b3c beca 5c3e
000001f0: 1f29 cb3d 6aab d53d 2f18 3cbe 7683 c8be
00000200: 6751 d8be 3629 9b3e a667 cd3d 697f 35bd
00000210: 86ab b43e e52a aa3e e777 933e 7c11 fd3d
00000220: 2add 19bd 3b7a 973d 9875 28be 0d57 6dbe
00000230: 5864 32be 6621 b5be 19e1 f2be 5570 f9bd
00000240: d02c 5a3e 64b7 153e 0410 573e ae1b c53d
00000250: 5d6d b33e f03b 513e 7af4 4d3e aabd f03d
00000260: d474 4b3e 46e8 c9bd e6d1 1dbe 7006 71bd
00000270: 0528 9a3d 1adf 363d 303c 6fbd 904d 423e
00000280: 3d41 cb3d 6d6e aa3c cc0a 963c fca7 08be
00000290: 6b27 bfbb 51ce a1bb 9adc 45be 140d 28bd
000002a0: 3994 cd3d 0f6b 30bc 9f7d d53d d5bc 0fbe
000002b0: 3d42 cabd 993b 93b8 2ce7 16be 1e94 4ebe
000002c0: 8213 85bd 5d1e 09bd de45 33bd c65c 84bd
000002d0: c1ea 143e c041 b73d 719d 003e ae8b 973d
000002e0: 610e e5bd 3749 84bc 8125 4abd 1076 e7bd
000002f0: 85f3 c4bc 30d9 973c 42d3 e73c 9a1a 023d
00000300: 3634 8abd d2f1 98bc 1a3a 40bb 0305 22bb
00000310: 60ac 223b 79b9 72bc 14f6 cbbc 9397 93bc
00000320: 657e 02bb 23c2 9e3c 3491 a3bc 45d2 283c
00000330: 5c4a 87bc 7a17 bf3c a3dc ccbc decb 983c
00000340: e9aa b7bc 1a95 4ebc bb3d bfba 8c6d 803c
00000350: 035b 9fbc ea04 59bc 7285 b2bb ebdc f9b8
00000360: 9d2b 2cbe 4630 39be e6a4 813d 475a 463e
00000370: fdac cf3e b942 66be f66d 2f3e 632a a63e
00000380: b1e3 f93e 8da4 863e bd19 9fbe 258f 82be
00000390: 03e4 333d 7e43 15be 86f0 1fbf de94 b9bd
000003a0: 6919 babe 7fa1 adbe 9a39 603e 5a49 7a3e
000003b0: a098 81bd 478a 063f 26b1 0d3f 5d3b 13be
000003c0: 2344 c7bd ea05 fd3c 8af1 67be 4e41 9abb
000003d0: 880e ff3d defe 923c 34b9 84be 0365 343e
000003e0: 30d3 813e 7f52 7cbc 45fb 883e e513 91bb
000003f0: eb53 13be 86d8 7bbe c58d 1cbe f76b c4be
0.10889599 0.16247632 0.0772337 0.028260535 0.1698691 0.018981468 0.035070356 0.014666611
0.009018442 0.07283712 0.13246039 0.117712066 0.04184767 0.04139279 -0.046543855 0.13765517
0.051422488 -0.07545797 0.07926572 0.046511542 -0.038429737 -0.02965262 -0.08362568 -0.01804254
-0.015117276 -0.033089276 -0.10678874 0.31300303 0.49110797 -0.021721078 0.21441215 0.08198245
-0.11104141 -0.3354622 -0.38987947 -0.26707536 0.17086804 0.5437487 0.17963956 0.052851506
0.14404044 0.15345925 -0.6360707 -0.59974325 -0.32683 0.19359097 0.3899158 0.30371228
0.0589433 0.1227957 0.17539072 -0.24742909 -0.5732632 -0.26985332 -0.005108284 0.011152688
-0.02092139 -0.0006515966 -0.00045587256 -0.0060272096 -0.0043780417 -0.026043978 0.044741802 0.00019664812
-0.048380885 -0.0007612582 0.00084342586 0.00022911595 0.00045409027 -0.030811455 -0.002790775 -0.043881156
0.005410587 -0.004665742 -0.012321724 -0.03447247 0.005416 -0.006313993 -0.011527134 -0.0019587085
-0.019777013 0.3803754 0.059451934 -0.017677 0.1365415 0.054140948 0.005193693 -0.5392683
0.050059423 -0.016012331 0.09095933 -0.04137565 -0.051480144 -0.25415048 -0.056901883 0.14005642
-0.6288206 0.30907235 0.4238113 0.08046264 -0.17102973 -0.4105432 0.14306676 -0.014008204
-0.095148526 -0.10114469 0.36355698 0.18994017 0.023636837 -0.11315031 -0.1330661 0.21990527
0.03161068 0.11830403 0.0030423156 0.012186144 -0.073262215 -0.20856178 -0.49083236 -0.40346542
0.18149395 -0.093181044 0.01697459 0.21561715 0.099199526 0.10433085 -0.183686 -0.39162797
-0.42249605 0.3030488 0.10029535 -0.04431096 0.35287112 0.3323585 0.28802416 0.123568505
-0.037564434 0.073963605 -0.16451108 -0.23177738 -0.1742109 -0.35377043 -0.4743736 -0.12179629
0.21306157 0.14620739 0.21002203 0.0962442 0.35044375 0.2043302 0.20112792 0.117549255
0.19868785 -0.09858756 -0.15412101 -0.05884403 0.07527164 0.04464636 -0.05840701 0.189749
0.099245526 0.020804608 0.018315695 -0.13345331 -0.0058335564 -0.004937925 -0.19322434 -0.041028097
0.10038037 -0.010767712 0.10424351 -0.14036877 -0.09875915 -7.020607e-05 -0.14736623 -0.2017369
-0.064978614 -0.033476222 -0.043767802 -0.06463008 0.14542677 0.08948088 0.12560059 0.07399689
-0.11184383 -0.016148193 -0.049352173 -0.113018155 -0.0240419 0.01853618 0.028298978 0.03176365
-0.0674824 -0.018669996 -0.0029331506 -0.0024722225 0.0024821982 -0.014814728 -0.024897613 -0.018016612
-0.0019911763 0.019379681 -0.0199667 0.010304038 -0.01651495 0.023326624 -0.025007552 0.018651899
-0.022420364 -0.012608791 -0.0014590541 0.015677236 -0.019452577 -0.0132458005 -0.005448037 -0.000119143944
-0.16813512 -0.18084821 0.0633028 0.19370376 0.40561667 -0.2248639 0.1713179 0.32454214
0.48806527 0.26297417 -0.31074324 -0.25499836 0.04391862 -0.14576527 -0.62476385 -0.09061597
-0.3634751 -0.33912274 0.21896973 0.24442044 -0.06327939 0.52554744 0.5534843 -0.14378114
-0.09729793 0.03088661 -0.22650734 -0.004707492 0.124539435 0.017943796 -0.2592255 0.17616658
0.25356436 -0.015400528 0.26754203 -0.0044274204 -0.14387481 -0.24594316 -0.15288456 -0.3836362

conv1.1.weight f4 [24]
00000000: f60c ee3e ba22 d53e ffbb 1dba 652f a23e
00000010: c21d ab3e 38f1 753e 3a01 003f 8a7c f53b
00000020: e15e b73e 0bce c43e 798c b63e 8842 b53e
00000030: 9969 a83e 459e a83e e3fe bc3e b073 883e
00000040: a432 ac3e ec2e 923e 5185 d53e dc01 aa3e
00000050: 6741 a13a 54ed 7d3e 01bd 853e ffed a93e
0.46494263 0.41628057 -0.00060170883 0.31676784 0.3342114 0.24017799 0.5000187 0.007491653
0.35814574 0.38438448 0.35654047 0.35402322 0.32893065 0.3293325 0.36913213 0.26650763
0.33632386 0.28551424 0.41703275 0.33204544 0.0012302817 0.24797565 0.2612076 0.3318939

conv1.1.bias f4 [24]
00000000: 613d d5be f6c2 853e b72e f8bb 2d4c 983e
00000010: 4beb 0b3e bc8e c63d bb8b 8dbe 633b eebc
00000020: f9ab 9a3e 52ff bf3a e20f cbbd 384a 993d
00000030: 037d fc3e fe38 d4bc 7508 42be 3b3e 6d3d
00000040: 303b 333f ca0b 783d 947d b2bd 5821 a73e
00000050: 3bd5 e2bb 48ec a1bd a2b3 703d ddf1 803e
-0.4164839 0.26125306 -0.007573928 0.29745618 0.13663976 0.09695193 -0.27645668 -0.029081052
0.3020933 0.0014648235 -0.09915139 0.07484859 0.49314126 -0.025906082 -0.18948539 0.057920676
0.7001219 0.060558118 -0.087153584 0.32642627 -0.0069223917 -0.07906395 0.05876506 0.25184527

conv1.1.running_mean f4 [24]
00000000: cb89 6ebd 2b4b 133c 3890 9e3c 1bb6 c1bb
00000010: 9068 e4ba 4f97 53bd 5d86 8f3d ccfb 373c
00000020: dde0 3fbd 11ba 633d 065e 473d 1a5f e43c
00000030: bbd6 e6bb 1c9f 303c 8293 a93d 39f4 0fbd
00000040: 4e32 1cbb cb47 81bd d945 803d 2a1a 2c3d
00000050: 5e23 d63b 5948 b3bd a405 a9bc 882f a6bc
-0.05823688 0.008990089 0.019355878 -0.0059116012 -0.0017426182 -0.05165797 0.0700805 0.011229467
-0.046845306 0.05559737 0.048673652 0.02787738 -0.007044641 0.010780122 0.08280088 -0.03514502
-0.0023833695 -0.063125215 0.062633224 0.04201714 0.006534978 -0.087540336 -0.020632572 -0.020286337

conv1.1.running_var f4 [24]
00000000: 6bd7 593d e267 4d3e baf6 223b acdd c43c
00000010: b776 023e f7fb 013d 93e9 503d 43ff 7a3a
00000020: 6ebf 953d 9129 303d 2383 5b3d a215 523d
00000030: 1919 8f3c 4f06 2d3d 34ab 213d c5c8 f83c
00000040: 09f5 a63c 36d0 813d 221b 6f3d 861a b73d
00000050: f830 233a c65a 4d3d 4936 433d e2fb ad3d
0.053183954 0.2005916 0.0024866299 0.024031483 0.12740599 0.031734433 0.051004004 0.000957478
0.07311903 0.04300839 0.05359186 0.051290162 0.017468022 0.042242344 0.039469913 0.030369172
0.020380514 0.06338541 0.058375485 0.08940606 0.00062252535 0.050135396 0.047659192 0.084953085

dense1.0.conv.0.weight f4 [48, 24, 1, 1]
00000000: 80d6 f6ba 1fbd 62be ba37 003d f8fa 2c3e
00000010: 5cad 91be 230c 03bd 01cf 903c 7ce9 b3bc
00000020: 4058 a1be 8e6c a43b f6e7 b5bd e505 ecbd
00000030: 2410 11be c8a1 74bd f088 ac3d a9bf 28bd
00000040: 04e4 d23e 2e83 18be 7814 95be 31e8 5bbe
00000050: 32cf 33bd c50f d6bd edf8 863c 7778 25be
00000060: 739d 223e f6d4 02be bb71 313b cce2 7c3c
00000070: ab35 473e 06ce 2abb 160a 1fbd aadf 95ba
00000080: ee6e f73d 5f79 413e dfdc 443d b05d f73d
00000090: aca4 ce3e 53a0 573e 88a7 b83d f0fd 94bd
000000a0: e158 5cbd 242b 123e 3d9a c2bd a040 bbbd
000000b0: 23c4 31ba 5b6c 92bd c2f0 ff3d d1ae 383d
000000c0: 80bc 563c 2e04 8f3d c73e d53b e369 293e
000000d0: 4126 3bbd 8752 1dbd c1ab 36bb 3134 81bc
000000e0: 0c78 1a3d 95ea 97bb 7cc5 c03d c0c0 273e
000000f0: 2ed8 89bd 1acf 20be 5f61 323e 8621 1c39
00000100: 6df3 0f3d befb 1c3e 585c f53d 68be 1d3d
00000110: 998b 303c d6a2 ba3c ce1e da3d 45ef 633e
00000120: 4878 a8bc b6fa bb3d 4699 213c c050 88bd
00000130: 163a 17be 8c28 c5bd c37a 433d fe24 71bd
00000140: 3b4d 7e3c 8ab2 ee3d 407f 013e 676b b8bd
00000150: 2fb7 92bd 4c05 83be d70a fdbd 88fe c9bd
00000160: dcfd 1e3d af13 51be 457c 0bbe 23bd 06be
00000170: cd8a 4d3c 2aa9 b8bd c79c 463d 5e27 dc3c
00000180: df3f bb3c 5d62 f7bd 254c 9cbc a561 8cbe
00000190: bced babe 0845 0fbe e7a8 5b3e 9fce c03d
000001a0: 9d9f f23e ac5f 953e 01cb d1bd 02cb 05be
000001b0: 515f f9be c37a 863e bbd6 fabd f843 40be
000001c0: 0528 eb3d 3dfc 4c3d 6d78 a4bd 86f5 28be
000001d0: 6b9a 2abd 75af c8bc ed5c f33d 04fa 113f
000001e0: 3fa5 be3b 2372 523e 2afd 10bb b813 c73b
000001f0: d6f0 d5bc 5a78 36be 90c1 273d b4df 50bd
00000200: 43f1 083a e7c9 263e a883 3abe c133 203e
00000210: 6fbe d63e 0bb4 92be 2089 2a3e 9613 9ebc
00000220: 610d 48be 1e93 a5be 5ccb 0e3e 2046 7a3e
00000230: 5094 c6bd 331a af3d 79d4 a2be a854 753e
00000240: 4fa9 9dbd 04f6 e3be 22e6 f7bc 8a95 6cbe
00000250: d1f5 873d bf93 d03d 6ad4 93bd 511c 96bc
00000260: 8a65 74be 4e4e c63d 93bd 78bd 7977 45be
00000270: 73bb 713a f9bb 853d e02d 5e3e 5ce7 f3bd
00000280: 7b81 7e3c d77d 183d af9c 8fbd 9de7 8abe
00000290: 6b02 68bd afbe 88bd 11d5 ac3d 77e7 303d
000002a0: 517f 093e 0df2 a73a 501d 0a3d 916e 203d
000002b0: c6fa c43c 6e1c a7bc 38a1 353d e987 883d
000002c0: 8b9c 7b3d 5ddb d63d fce1 88bb 5662 183d
000002d0: 2cc1 ed3c 2ae9 a1bc c953 073c 25b2 653c
000002e0: eb63 53bd cd72 19bd c424 193d 0aad 943c
000002f0: 2157 37bc 1dba d3bc 1d5b 323d 9215 3b3c
00000300: fa42 21bd 34dd 8fbe 1bec a93b 0378 e43c
00000310: f623 573d 75d6 27be cd6e 013e 77d9 af3c
00000320: 6879 8bbd b9d2 d0bd 2e2d db3d 923a cbbd
00000330: ba45 44be be8f 66be 5e51 bbbd f6cb 813c
00000340: 2028 29bc 28b5 3a3d 9be2 7bbe 9038 1ebe
00000350: 16c3 073d 4507 93bc ab8f acbe 72f2 7fbd
00000360: a527 ec3d 4097 bdb8 9d86 99bb 950f 9e3e
00000370: 2f26 4ebe e0d9 91bd 68b7 4f3c e99b d93c
00000380: ea39 b6bd 5a78 e5bd b857 9d3d 742c 18be
00000390: cb83 a93e 2b56 7d3e 6c08 4a3d a641 0a3d
000003a0: b628 603e fa9e c439 da53 0d3d 4065 d43c
000003b0: 5168 813d 685f c43b 054d 7f3e a9f9 99be
000003c0: db9b 8ebc a1c3 913b 5a38 903c 8e98 a9bd
000003d0: 6ea3 203d 566e 513d fe3c 9cbc cb21 133d
000003e0: 9ba8 2c3c 1729 383d 8f3b 8a3c 9b42 833d
000003f0: 8395 443c b449 11bd 67f7 e43c 3467 4abc
-0.0018832237 -0.22142456 0.031303145 0.16892612 -0.28452575 -0.031993996 0.017676832 -0.02196192
-0.31512642 0.0050178235 -0.08882134 -0.11524562 -0.14166313 -0.0597246 0.08424556 -0.041198406
0.41189587 -0.14893791 -0.2911718 -0.21475293 -0.04389877 -0.104522265 0.016476119 -0.16159235
0.15880375 -0.1277655 0.0027075845 0.015434932 0.19454066 -0.002606274 -0.038827978 -0.0011434455
0.12081705 0.18893956 0.0480622 0.12078416 0.4036001 0.21057253 0.09016329 -0.07274997
-0.0537957 0.1427427 -0.09502075 -0.091431856 -0.0006781241 -0.071495734 0.12497093 0.045088593
0.013106465 0.06983219 0.006507728 0.16544299 -0.04569078 -0.038408782 -0.002787337 -0.015771957
0.037712142 -0.0046361187 0.09412667 0.16382122 -0.06730686 -0.15704003 0.17419957 0.00014889808
0.03514426 0.15330407 0.11980504 0.038511664 0.01077547 0.022782724 0.10650407 0.22259243
-0.020565167 0.09178679 0.009863203 -0.06656027 -0.14768252 -0.09626874 0.047724497 -0.05887317
0.015521343 0.116551474 0.12646198 -0.0900486 -0.07163846 -0.2558998 -0.12355583 -0.09863001
0.038816318 -0.20417665 -0.13621624 -0.13158087 0.0125453 -0.090166405 0.04848936 0.02687424
0.022857605 -0.12079308 -0.019079277 -0.27418247 -0.36509502 -0.13991177 0.2145115 0.0941441
0.473874 0.29174554 -0.10243798 -0.13065723 -0.48705533 0.26265535 -0.12247988 -0.18775928
0.114822425 0.05004524 -0.08030782 -0.1649991 -0.04165117 -0.024497727 0.118829586 0.5702212
0.0058180387 0.20551352 -0.0022123554 0.0060753487 -0.026115816 -0.17819348 0.04095608 -0.05099459
0.0005223939 0.16287957 -0.18214285 0.15644743 0.41942164 -0.28652987 0.16653872 -0.019296449
-0.19536354 -0.32338804 0.13944763 0.24440813 -0.09696257 0.08549919 -0.3180273 0.23958075
-0.07698309 -0.44523633 -0.030261103 -0.2310392 0.06638683 0.1018443 -0.07218249 -0.01832405
-0.23866859 0.09682904 -0.060727667 -0.19283856 0.00092213525 0.065299936 0.21697187 -0.11909363
0.0155338 0.037229385 -0.07012307 -0.27129832 -0.05664293 -0.06676995 0.08439077 0.043189492
0.13427474 0.0012813226 0.03371936 0.039167944 0.02404536 -0.020399299 0.044343203 0.06666548
0.061428588 0.10491059 -0.00417733 0.037203155 0.029022776 -0.019764502 0.008259722 0.014019524
-0.05160896 -0.037463 0.037388578 0.018148918 -0.011190207 -0.025845582 0.043543924 0.011418717
-0.039370514 -0.28098452 0.0051856167 0.027889257 0.05252453 -0.16390403 0.12639923 0.021466
-0.06810266 -0.10196442 0.10701977 -0.09923281 -0.19167224 -0.22515771 -0.09146379 0.015844326
-0.010324508 0.04558292 -0.24598162 -0.15451264 0.033145033 -0.017947802 -0.3370336 -0.062487073
0.11530999 -9.040395e-05 -0.0046852366 0.30871263 -0.20131753 -0.071216345 0.012678005 0.026563602
-0.08897765 -0.11204596 0.07682747 -0.14860708 0.33108363 0.24739902 0.049324438 0.033754013
0.2189053 0.0003750248 0.034503795 0.025927186 0.06318725 0.0059928186 0.24931724 -0.30073288
-0.017408302 0.0044483696 0.017604996 -0.082810506 0.03921836 0.051130615 -0.019072052 0.0359209
0.010538246 0.04496106 0.016874103 0.06409188 0.011998537 -0.03547068 0.027950002 -0.012353707

dense1.0.conv.1.weight f4 [48]
00000000: 843d b93e 5063 db3e 8f0f a43e fb6f a53e
00000010: 9178 b23e d345 af3e 7c83 c03e d29c f73b
00000020: 80cf 453e c9f3 a83e 4114 aa3a 463a 763e
00000030: daa5 f23e 6b95 ee3e 0f8c 893e dd4b c73e
00000040: 6e7b db3e 2335 b43e 9d46 ee3e aa2b 0c3b
00000050: 8eda bf3e ffef a13e 86b0 c03e b8c4 b33e
00000060: ee18 a73b b0fc 093f 27d5 903e d0eb de39
00000070: 9eb5 1c3f 16a2 013f 8573 d73e 4213 0e3f
00000080: e83d f03e 2465 d23e 1542 5c3e b32d c23e
00000090: 84c7 be3e f02d 9c3e 8cda b43e abcb bc3e
000000a0: 5098 f93e 2e4b ac3e 5bc9 f33e 3ad8 f33a
000000b0: 0bcd cb3e 22c7 023b 488d ed3e 1e2f e63e
0.36179745 0.42849207 0.3204312 0.32311997 0.3485761 0.3423296 0.37600315 0.0075565362
0.19317436 0.32998493 0.0012976007 0.24045667 0.4739216 0.46598372 0.2686467 0.38925067
0.42867607 0.3519679 0.4653825 0.002138833 0.37471431 0.31628415 0.37634677 0.35111022
0.0050994074 0.53901196 0.28287622 0.00042518834 0.61214626 0.5063795 0.42080322 0.55498135
0.4692223 0.4109279 0.21509583 0.3792549 0.37261593 0.30503798 0.35322988 0.36874136
0.48749018 0.33651108 0.4761456 0.0018603869 0.39804873 0.0019955118 0.46396852 0.44957823

dense1.0.conv.1.bias f4 [48]
00000000: 254d 0b3e 6ef2 b4be f977 48be 1e4b 02be
00000010: 4799 713e 005a 6b3d 49ed 72bd 7341 4bbd
00000020: 2430 433d dc60 18ba 9e20 0cbc 6d21 3fbc
00000030: c48a 4fbe b7d0 34be 4cb6 62be 370e 91be
00000040: 6688 b33e f585 c2bd 26d1 ecbd c923 7abc
00000050: c4a0 68be c959 53be eb03 e7bd 9380 a9bc
00000060: 800a 7ebc 59f8 bcbe df34 343e fbb8 2bbb
00000070: 68ff 82be 454e edbd 47d8 aebc e98e d13e
00000080: c84d 3d3c 7951 cc3d 4a2b 83bd d463 a33e
00000090: cdef 95be fc4a 34bd 9b1f 703e 6e83 053e
000000a0: dcac b1be 0ad9 583e 8ccd c9be fba6 6fbc
000000b0: 9971 91bc 27d2 85bc 373f 10be c867 2ebe
0.13603647 -0.3534121 -0.19577016 -0.12723967 0.23593627 0.057458878 -0.059308324 -0.049622964
0.047653332 -0.0005812773 -0.008552698 -0.011665684 -0.20267779 -0.17657743 -0.22139853 -0.28331158
0.35065 -0.094982065 -0.115633294 -0.015267321 -0.22717577 -0.20639719 -0.11280044 -0.020691192
-0.015505433 -0.36908224 0.17598294 -0.0026202786 -0.25585485 -0.11587194 -0.021343363 0.40929344
0.011554189 0.09976477 -0.06404741 0.319121 -0.29284516 -0.044016823 0.23449557 0.13038418
-0.34702194 0.21176544 -0.39414632 -0.014627214 -0.017754363 -0.01633556 -0.14086615 -0.17031777

dense1.0.conv.1.running_mean f4 [48]
00000000: 44ae b5bd ee04 143e 45ab e83d 857a 9ebd
00000010: dae6 10bd affa e03d 9215 3fbe 7624 e83c
00000020: e6b2 4fbe bfd7 1e3e e9a3 e33c 21fc 1cbe
00000030: 1db5 8e3e dab8 233e 5b76 be3d 8d07 6a3d
00000040: bef2 8ebe b66f a13d 5246 bc3d ecae 373d
00000050: ff2a b2bd dac3 11bc 2cbf 0dbc aa8b 3cbe
00000060: 34d9 1f3d 6d25 083e 7131 283d 4074 1a3c
00000070: af80 0c3e 38d5 41be 5070 63be 2d6a 70be
00000080: a7d5 35be f185 dfbd 3094 53bd ac69 713e
00000090: 9c66 a83c 13e2 1bbe 9a3a 55be 099f 3cbd
000000a0: e01d 5f3e cdff f7bd 6076 9f3d 2ec2 043d
000000b0: 9d28 133b 460a a33b 88e7 55be 4ec3 2b3e
-0.08871129 0.14455006 0.11360792 -0.077382125 -0.035376407 0.10985314 -0.18660572 0.028337698
-0.20283088 0.15511988 0.02778812 -0.15330555 0.27872553 0.15988484 0.09299918 0.057136107
-0.27919573 0.07882635 0.091931 0.044844553 -0.08699607 -0.008896792 -0.008651536 -0.18412653
0.0390255 0.13295527 0.041062776 0.00942713 0.13720964 -0.18928993 -0.22210813 -0.23478003
-0.17757283 -0.10914219 -0.051654994 0.23575467 0.02055674 -0.15222959 -0.20823136 -0.046050105
0.2178874 -0.12109337 0.0778625 0.032411747 0.0022454627 0.00497559 -0.20889103 0.16773722

dense1.0.conv.1.running_var f4 [48]
00000000: 73aa 8e3c d722 023c 2013 833b 9c71 843b
00000010: 6f35 823c de24 1e3c b9df d53b 4831 fe39
00000020: c47f 013c edf7 253c 0ef0 4b3a 48b1 ee3b
00000030: 7778 673c d5f1 053c 366f 653b 99c0 bb3b
00000040: 824b 703c 449c 003c 7606 4e3c 6dcf d239
00000050: 9058 b03b 52fc bb3b eadf eb3b 97ec 153c
00000060: 054c 0d3a 4e51 bd3b f5ce 073c 24f9 7b3a
00000070: 439a ea3b e19b 903c ee9a 8e3c 78f7 843c
00000080: 7bf0 823c ab20 9a3c ae90 9e3b 196e 533c
00000090: 3097 013c 4b68 a53b e238 b73c 0ee1 883c
000000a0: 1d72 083c 22c1 4b3c 40db 903b c81c 623a
000000b0: 0cfd 1d3c ef0b d439 aa83 1e3c 8b9b 2a3c
0.01741526 0.007942877 0.0040000826 0.0040418636 0.01589462 0.0096523445 0.006526914 0.00048483373
0.007903997 0.010129911 0.00077796064 0.007284317 0.014127842 0.008175333 0.0035008914 0.0057297465
0.01466644 0.007849757 0.012574783 0.00040208866 0.005381651 0.005736866 0.0071983235 0.009150646
0.0005390051 0.0057775145 0.0082890885 0.0009612015 0.0071595027 0.017652454 0.01740786 0.016231284
0.01598381 0.018814405 0.0048390245 0.012904667 0.007909581 0.005047833 0.022365991 0.016708877
0.008327988 0.012436183 0.004420668 0.00086255046 0.009642851 0.00040444682 0.009674946 0.010413061

dense1.0.conv.3.weight f4 [12, 48, 3, 3]
00000000: 33fc e83b d38b cd3d 3bcf d0bb 0648 1d3e
00000010: 9973 ddbb bb9f c4be 8ddf 54bd 19bb 5fbe
00000020: a49c 953d dd79 abbd db61 e8bd 0b08 4cbe
00000030: 155f 2abe 6608 8d3c 2cbe 5d3e 7821 a6bd
00000040: cfeb 04be 6441 023e caaa 84bc 727e 833d
00000050: 20dc a43c 98a1 cb3c 55b2 4dbd 9d92 ec3c
00000060: c26a 60bd c74a 2fbc 6f79 443d 8e8f 373d
00000070: 65e6 10bc 0d95 f2bc f405 20bc 17ca 92bd
00000080: 6949 0e3d 9365 90bd 1c5c a6bc 278d 403d
00000090: 1e24 bdbe fd45 c8bd 2084 123e 68be 1ebe
000000a0: 7c14 843d 17f6 acbd b831 713d 77b9 593e
000000b0: 84c0 a7be 0670 43bd 7105 a7bd ee20 c3bd
000000c0: 835d 54be 77ca b4bd 8949 4d3e e139 1f3c
000000d0: 6459 42bd d911 2e3e 323d 91bc ccca 513d
000000e0: 43b6 02bc 8323 cebc 1648 783d de7e 12be
000000f0: fb10 b0bc 5d5c 5dbd 91fd 7bbe cb1d fc3a
00000100: 7c61 f2ba 81b9 9e3c fc98 7fbc 0697 493c
00000110: 0d4b 6d3d 6db2 053d f3d8 133d a569 34bc
00000120: 2378 a93d f86b 113e df1e 223c ee98 373e
00000130: 275b 083e 224e f6bd 0269 b33b 172e 243d
00000140: 873e f1bd e756 3bbe 3604 21bd d7cf 00be
00000150: 7d02 02be 7989 2fbe dd45 743e cc91 b5be
00000160: e952 27be 42be 173e 828d 333c 09db d1bb
00000170: 459d 5e3d 7a6b 66bd adfb a03b 8bdf 923c
00000180: c786 03bb d4df 923c 0825 9c3b 56b2 e5bc
00000190: 9f49 7dbd 33c5 7bbd 71d0 d33d c034 4c3d
000001a0: e38a f6bd d8e5 413d 5aac 7fbb ace2 2ebe
000001b0: a192 32be 48dc bcbc 98ca 8fbd dff8 5fbe
000001c0: a1fc 3cbe 22d8 8e3e 52be 8dbe 1f97 f1bd
000001d0: ffb1 983d bfb0 96bd ad7d 95bc 2798 a9bd
000001e0: df1c 643d 466b b43b fd90 0c3e 55fb 15be
000001f0: 106e a23d 6308 da3b 357a 783d e7c9 ca3b
00000200: 4d21 44bd d4db 1dbe b42d a8bc a0e6 753d
00000210: 2bc6 b4bd 6da0 1a3e 0d23 903e dd96 cd3d
00000220: 1dc4 fdbd 6e8f 82be c624 f6bd ff83 6cbe
00000230: 524e 2cbe 786b d0bd 6c44 ebbc fbf0 a93c
00000240: b1ff 84be 25df a6bd 8f2e 893e e53c 91bd
00000250: a28d 433e 6231 9cbd 1d8c 9d3e f7a1 2a3e
00000260: 51d6 0ebe cfa0 8ebe 01f9 21bc 2e14 8fbd
00000270: c986 3cbc 0002 9abd 07d2 6c3c ff50 9a3d
00000280: 9784 06be 8d73 c73d 5c57 fabd 2004 b13c
00000290: 206e 8ebd fb04 89be eea1 0ebe 6637 48be
000002a0: 950b 66be c986 113e 1945 253e e964 3e3d
000002b0: ab40 6c3b 7beb 42bd 9907 74ba 65aa f4bc
000002c0: 69be 203d 996e 21bc f763 56bd dbce 9b3b
000002d0: 5eca c9bb 6394 5d3d 71db aabc a6f7 ff3d
000002e0: 0df9 a03d 599a bf3c d497 923c 2f3b 12bd
000002f0: a2b3 1abd a340 51be 38b5 863e 2d5e 0e3e
00000300: 1a9c 35bd 5f95 f63c ef1b 503e bdd6 1abe
00000310: 8346 043e da40 1a3e d345 c0bd a0ce ad3d
00000320: 731f 53bb 19c9 42bd 2a98 ebbd a43b c9bd
00000330: fedb 6dbe 4aaf 15bd 91d3 dd3d 4277 3d3d
00000340: d2a6 0bbd aa2a f13d a3f0 ccbd 56cb 3fbd
00000350: 621a 9ebd ec17 80bd c06a 8f3d 24ad 8ebd
00000360: f9b3 f43b 49bd f3bc 202c 0b3d 57ca 16bd
00000370: c9bd af3c c466 00bd a83e 8339 d0e1 be3b
00000380: 5f3d 243c ef0a 36bd 1b77 b8bd 5bf9 37be
00000390: c39e 03bd f896 53be a24d a8bd 0880 b33d
000003a0: 568d b63d c4bc 96bd 35d5 9fbd 15de 6bbd
000003b0: 14d1 913d db34 45be 4ca4 fabb 353d 873e
000003c0: 6297 91bc 022d 1b3d 80ba 033e 24d3 97bc
000003d0: 38b7 d0bc 0eca 12bc d7ae 56bd 1595 fbbb
000003e0: 11a5 833c d6af 763d 32d0 f83b 848f dd3c
000003f0: 0085 cdbd d4d0 3bbd dba3 013e f058 cc3d
0.0071101426 0.10036435 -0.00637236 0.15359506 -0.006758165 -0.38403115 -0.051971007 -0.21848716
0.073052675 -0.08372853 -0.113467894 -0.19924943 -0.16637833 0.017215919 0.21654576 -0.081118524
-0.12980579 0.12720257 -0.01619472 0.06420602 0.020124495 0.024857327 -0.0502189 0.028878504
-0.054789312 -0.010698981 0.04796737 0.04481464 -0.008843993 -0.029612089 -0.009767044 -0.07167452
0.034737978 -0.07050624 -0.020307593 0.047009613 -0.36941618 -0.09778974 0.14308214 -0.15502322
0.064492196 -0.084453754 0.058885306 0.21262155 -0.32764065 -0.047714256 -0.08155335 -0.09527765
-0.20738797 -0.088276796 0.20047583 0.009718389 -0.04744853 0.16998996 -0.017729376 0.051218793
-0.007978025 -0.025163418 0.06061562 -0.14306208 -0.021492472 -0.054043163 -0.24608447 0.0019234953
-0.0018492187 0.019375565 -0.015600439 0.012304073 0.057932902 0.032640863 0.03609557 -0.011011516
0.082748674 0.14201343 0.009895056 0.17929432 0.13316022 -0.120266214 0.0054751644 0.040083017
-0.11779504 -0.1829487 -0.039310656 -0.12579285 -0.12696262 -0.17142285 0.23854776 -0.35462797
-0.16340221 0.14818671 0.010959031 -0.006404285 0.054349203 -0.05625484 0.0049128146 0.01792886
-0.0020069347 0.017928995 0.0047651567 -0.028039139 -0.06183779 -0.06146736 0.103424914 0.049854994
-0.12038209 0.047338337 -0.0039012642 -0.17078656 -0.17438747 -0.023054257 -0.070210636 -0.2187228
-0.18455745 0.2789927 -0.27684265 -0.11796402 0.07455825 -0.073579304 -0.018248403 -0.08280974
0.055691596 0.005505952 0.13727184 -0.14646657 0.07931149 0.006653832 0.06066342 0.0061886194
-0.04788332 -0.15415889 -0.020529605 0.060034394 -0.0882686 0.1510026 0.28151742 0.100385405
-0.12390921 -0.25500053 -0.12018733 -0.23097228 -0.16826752 -0.10176748 -0.02871915 0.020744791
-0.25976327 -0.0814803 0.26793334 -0.07091693 0.19096997 -0.076266065 0.3077096 0.16663347
-0.13948943 -0.27857062 -0.009886027 -0.06986271 -0.011506745 -0.07519913 0.014454371 0.0753498
-0.13136517 0.097388364 -0.12223694 0.021608412 -0.069545984 -0.26761612 -0.13928959 -0.19552383
-0.22465356 0.14211573 0.1613964 0.046482954 0.0036049287 -0.047587853 -0.00093089935 -0.029866407
0.03924409 -0.009853029 -0.052341428 0.0047548837 -0.0061581573 0.05409659 -0.020856591 0.12498407
0.07860003 0.023389028 0.017894663 -0.035700973 -0.037768967 -0.20434813 0.26310134 0.13903113
-0.044338323 0.030100523 0.20323156 -0.15120979 0.12917523 0.15063801 -0.09388318 0.08486676
-0.003221479 -0.047555063 -0.11503632 -0.09825829 -0.23228452 -0.03654412 0.10831369 0.04625631
-0.03409464 0.11775716 -0.10006835 -0.046824776 -0.07719876 -0.06254563 0.07002783 -0.06966618
0.0074677435 -0.029753344 0.033977628 -0.03681406 0.021452801 -0.031348005 0.0002503295 0.005825259
0.010024398 -0.04444402 -0.090070926 -0.17966215 -0.03213383 -0.20663059 -0.08217932 0.087646544
0.089136764 -0.07360223 -0.07804338 -0.05758484 0.071199566 -0.19258444 -0.0076489802 0.26413885
-0.01777238 0.03788472 0.12864113 -0.018533297 -0.02547799 -0.008959306 -0.052412834 -0.007677684
0.01606992 0.060226284 0.007593178 0.027045973 -0.10035133 -0.04585345 0.12660162 0.09977901

dense1.0.conv.4.weight f4 [12]
00000000: cf81 013f 9b47 ec3e 6bfd 983a e8bd 9e3e
00000010: 01ba aa3e f723 9e3e 81da d63e ddb7 af3e
00000020: 4bdc ac3e 0fa6 ca3e e9dd cc3e c9a8 a0bb
0.505887 0.4614838 0.0011672204 0.31004262 0.33345035 0.30886814 0.4196358 0.34319964
0.3376182 0.39579818 0.40013054 -0.0049029333

dense1.0.conv.4.bias f4 [12]
00000000: a9f3 81be e613 d0bd e3f4 63bc 2682 5d3e
00000010: 4a6c 0e3f d9b8 d83d e86a d13d 7dd1 853d
00000020: 4a1b 6c3d 8096 2ebd a5a2 10bc 7c2f 29bd
-0.2538121 -0.10160045 -0.013913366 0.21631679 0.55633986 0.10582132 0.10225469 0.06534097
0.057643212 -0.042623997 -0.00882784 -0.04130505

dense1.0.conv.4.running_mean f4 [12]
00000000: 9a07 b1bd d71c c3bd 7197 d63b ef02 553c
00000010: 426f d8bc 5e6c e6bd c213 533d a774 e03b
00000020: e387 d7bd c068 82bd f764 b43d 0163 34bc
-0.08644028 -0.09526985 0.006548815 0.013001188 -0.02642024 -0.11251138 0.051532514 0.0068498435
-0.10523965 -0.06367636 0.0880832 -0.0110099325

dense1.0.conv.4.running_var f4 [12]
00000000: 1430 7b3c d28c e53c 17e6 2639 6fef 9a3c
00000010: cdcf d63c b7f6 923c f2be 0e3d cd3c 3a3c
00000020: 7eea bf3c bea6 b93c 2c07 953c d5ba b439
0.015331287 0.02802125 0.00015916709 0.018912999 0.026222134 0.017939908 0.03485007 0.011367035
0.023427244 0.022662517 0.018191896 0.00034471476

dense1.1.conv.0.weight f4 [48, 36, 1, 1]
00000000: 8b11 483c b9c0 5b3d 6f65 4fbd 1ab1 503d
00000010: 34e4 103c 18d8 a3bc 4088 e73d 496e 4c3d
00000020: 38c3 f53c b102 52bd 76d6 8c3b 68e1 ab3b
00000030: 498e 943d 6857 db3c 4984 2ebd 5717 1dbd
00000040: 38a7 dc3c 926d ee3a 835c 6ebd 4857 f9bb
00000050: 6497 313d a6ad febb 57b6 8d3d 4c3c f1bc
00000060: fdaa 003d 35ed b6bb 5d84 f23b 52c9 313d
00000070: 8877 c5bd ba7b 8cbc d9f6 643d 276e 193d
00000080: 0f58 583c e965 1fbd 6187 d5bc 8887 b6bc
00000090: 03da b8bd 34c3 47ba 08df 6bbd bcd6 85bd
000000a0: d7d9 8b3e 3775 533c 8e01 043b 9c49 2ebd
000000b0: fc24 88be 3934 4dbd 1ce8 513d 66d9 e3bc
000000c0: 18d2 a3bd 7fb2 5d3c aed5 073d 0db6 943e
000000d0: e6b3 35be 315a 2ebe 9cca 45be 83df 94bd
000000e0: f37e 77be 39db 453d fce2 29be 2af1 38bd
000000f0: d0e2 973d 3f75 4fbd 884c 1ebe 16d3 77bd
00000100: c735 11bf 1d8d f13d 5b8a 063c 8879 87bd
00000110: 2ef8 cd3c fefa bcbd f457 cdbd 9bd1 c73d
00000120: 28f9 443e ceaf 0a3e 60ca 5dbb 14c4 08be
00000130: ffb4 c0bd 982e d53d 7df5 0fbc 2254 4fbe
00000140: 1665 8b3c 318e 0ebc ad45 9f3e 0637 253d
00000150: 8f65 933d 3749 163e 7119 debc 6459 edbd
00000160: 2207 d93d 04bb 06bc 8b26 043e 191d 123d
00000170: 9787 723e b6c4 2a3c f09b 1a3e 5779 be3c
00000180: dbf0 29bd 4b78 3c3a 210f a53c b491 e83d
00000190: 64d1 dcbd 9ab8 493e 9dcd 79bd 4bb1 453e
000001a0: 2d6e 86bc ab30 f03d 310a 6cbd 7014 703d
000001b0: b049 e23b efe4 a23b dc1f d3bd 2a2e 8bbd
000001c0: 765f 8f3d d10a 53bc b9a6 733d 40c6 8bbd
000001d0: f2ab 913e 2e38 1fbe cc7c d3bd 0d2e 803c
000001e0: ff38 823e d36c 16bb 5e25 5cbb 4612 853d
000001f0: 81ec 5dbb 4e5f 9ebd 1444 0fbc 9c74 4abc
00000200: d96e 573e 2431 4a3e 180b acbd 31ae df3c
00000210: ad63 873e 7336 883d 343c c0bb fa59 1b3e
00000220: 5c57 9bbd efcb acbe 7097 203e 2cf4 653d
00000230: 4623 cbbc e2eb 343b 565c a2bd f3d5 563d
00000240: f9e7 efbd 56bd 0f3e e46d d83c 9e96 26be
00000250: 057d da3d de8b 863d ebea 0a3d d011 68be
00000260: 710d 29be 97bf cfbd c081 19bd a7c8 b03b
00000270: 1282 6cbd b100 72be f267 583d cc0f ddbe
00000280: ff63 f4bd 832d 453d 2fe9 553d 40aa 1cbd
00000290: 0c37 853e b129 a5bc a5f5 4abe 72f4 26be
000002a0: b9f8 6d3e 7d7f f8bb f090 f13c 010d bebc
000002b0: 4ff5 d5be 55d8 e13d b015 84bc ddfe fe3d
000002c0: d912 033d 0a61 91bd 1597 a23b deff fabd
000002d0: de7c abbd 96aa 53bd 5d85 75bd b076 073d
000002e0: 88fd 303c afae 2a3d d33e fd3d c063 02be
000002f0: e8c2 77be 227d d5bb df24 b43d 3e35 943d
00000300: 9598 243e aee6 31bd fd18 84bd d5da b73d
00000310: 359e 293e 626f 00bd 649f 8e3e 320a d83d
00000320: 4157 93be 60fa e83d cea3 da3d e3a8 e3bd
00000330: 05e7 af3e 3c07 383e 671a 1f3e 74c2 86bc
00000340: 06cb d33d 7ee1 6cbd 8838 1a3e 47bb e93d
00000350: 0eb8 953c dd3f 22bd d3a3 963e dc04 a7be
00000360: a92c 223e ef8d c4bc 5cc1 a6bb 15f5 653c
00000370: 0e79 bcbd 132d 75be eb72 c6bd d77f edbd
00000380: d36c 41be 974f 83be 47cc 483b a952 2fbd
00000390: 7b4f 86bd 79cb 10bf 4b02 87bb 4d92 99bd
000003a0: c918 3e3e 8678 9fbb 97d2 0f3d 0f9b eabc
000003b0: 2a94 d83e 02ee 5c3e b6b7 ba3d 5cd7 e23d
000003c0: 87d9 a33c e111 f33d 2304 febc 4aca 173e
000003d0: 2fe3 06be 0e5a 7a3e ea5d 36be f72f 383e
000003e0: 6a72 5b3d 6703 b33d 943a 5cbe cc3b 9a3e
000003f0: 3d26 f7bd 51a0 963a 9230 ecbc 25dd ebbd
0.012211214 0.05365059 -0.050633844 0.050950147 0.00884347 -0.020000502 0.113052845 0.049909864
0.030000314 -0.051272098 0.0042980267 0.0052453764 0.07253701 0.026775077 -0.042606626 -0.038352337
0.026935205 0.0018190613 -0.058193695 -0.0076092817 0.043357268 -0.0077721654 0.06919544 -0.029447697
0.031413067 -0.0055824765 0.007401033 0.043404885 -0.096419394 -0.017148841 0.055899475 0.037458565
0.013204589 -0.03891555 -0.02606553 -0.022281423 -0.090259574 -0.0007620335 -0.057585746 -0.06535098
0.27314636 0.012906364 0.0020142528 -0.042550668 -0.26590717 -0.05009863 0.051246747 -0.027813625
-0.079990566 0.013531326 0.033162765 0.29045144 -0.17744407 -0.17026593 -0.1931557 -0.07269194
-0.24169521 0.04830477 -0.16590494 -0.045151867 0.07416308 -0.050648924 -0.15458882 -0.06050404
-0.5672268 0.11794493 0.008211697 -0.06614977 0.025142755 -0.092275605 -0.10026541 0.09756776
0.1923567 0.13543627 -0.0033842549 -0.13356048 -0.09409522 0.10409278 -0.008786556 -0.20246938
0.017015975 -0.008700893 0.31107846 0.040335678 0.07197105 0.14676367 -0.02711174 -0.115893155
0.105970636 -0.008223299 0.12905328 0.03567228 0.23684536 0.010422876 0.15098548 0.023251219
-0.041489463 0.0007189556 0.020148816 0.11355916 -0.107821256 0.19699326 -0.060987104 0.19305913
-0.016409958 0.11728033 -0.057626907 0.05861324 0.006905757 0.0049711387 -0.10308811 -0.067959145
0.070006296 -0.012880997 0.05948517 -0.068249226 0.28451496 -0.15548775 -0.103265375 0.015646959
0.2543411 -0.0022953048 -0.0033591609 0.06497626 -0.003386289 -0.07733022 -0.008744258 -0.012356903
0.21038379 0.19745308 -0.084005535 0.02730474 0.26443234 0.0665101 -0.005866552 0.15171042
-0.07585022 -0.3374934 0.15682769 0.056141064 -0.024797093 0.0027606417 -0.07927768 0.05245013
-0.11714167 0.1403707 0.026419587 -0.16268393 0.10668377 0.06569646 0.03391544 -0.22663045
-0.16509034 -0.10143965 -0.037477255 0.0053950134 -0.057741232 -0.23633076 0.052833505 -0.43176115
-0.11933135 0.048139106 0.052224334 -0.0382483 0.2601856 -0.020161482 -0.19820268 -0.16304186
0.23239411 -0.007583557 0.029488057 -0.02319956 -0.41788718 0.1102759 -0.016123623 0.12450955
0.032000396 -0.07098587 0.004961858 -0.12255834 -0.08373426 -0.051676355 -0.05994164 0.033072174
0.010802634 0.041670498 0.123654984 -0.12733364 -0.24195445 -0.006515161 0.08796095 0.07236718
0.1607383 -0.043432884 -0.06450079 0.08977286 0.16564257 -0.031356223 0.2785598 0.105488196
-0.28777507 0.1137588 0.106757745 -0.11116197 0.3435594 0.1797151 0.15537415 -0.016450144
0.10341458 -0.057832234 0.15060627 0.114126734 0.01827624 -0.039611686 0.29421863 -0.32620895
0.15837349 -0.02399346 -0.005088968 0.014035483 -0.09202777 -0.23942976 -0.096898876 -0.11596649
-0.1888917 -0.2564666 0.0030639337 -0.04280344 -0.065581284 -0.56560475 -0.0041201464 -0.07498608
0.18564142 -0.0048666624 0.035112944 -0.02863839 0.4230054 0.21575168 0.09117071 0.11076233
0.020001186 0.118686445 -0.031007832 0.14823261 -0.13172601 0.24448416 -0.17809263 0.17987047
0.05357591 0.08740883 -0.21506721 0.30123746 -0.1206784 0.001149187 -0.028831754 -0.11516789

dense1.1.conv.1.weight f4 [48]
00000000: c971 3f3a d471 023f 64e6 803e ff55 bd3e
00000010: d4a9 dd3e 61ac e73e 640a e93e ade6 ca3e
00000020: cc37 ed3e 0fa3 9e3e 6848 e93e 07a8 ca3e
00000030: d0ca 893e d196 a63e 79f7 de3e 6ad2 c33e
00000040: 33f2 f33e ef0c 913c 5b76 a93e d67c a23e
00000050: 220c f33e 22e1 ff3e 2f60 bb3e f5ad af3e
00000060: 97ef ae3e a5d6 da3e 9edd ec3e ad51 5c3a
00000070: 4666 2b3f 8154 853e 42e6 023f 028c a33e
00000080: d3e7 be3e c578 b63e afcc f23e d43a b83e
00000090: a33e de3d 8a43 9d3e d956 b73e 7ddf c83e
000000a0: c60c cf3e d7bf 123f 4418 9e3e fc9d f23e
000000b0: e354 5eb9 92b1 a43e 41d9 073f f0bf 863e
0.0007303027 0.5095494 0.25175774 0.36979672 0.4329363 0.45248702 0.4551574 0.39629117
0.46331632 0.3098378 0.45563054 0.3958132 0.26912546 0.3253694 0.43548182 0.3824647
0.4764572 0.017706363 0.3309811 0.31735867 0.47470194 0.4997645 0.3659682 0.34312406
0.34167168 0.42741886 0.4626283 0.00084045046 0.6695293 0.26041034 0.51132596 0.31942755
0.37286243 0.35639015 0.47421786 0.35982382 0.10851791 0.3071559 0.35808447 0.39233008
0.40439433 0.57323974 0.30877888 0.47386158 -0.00021203193 0.32166725 0.5306588 0.26318312

dense1.1.conv.1.bias f4 [48]
00000000: 99c5 f4bb 8090 8ebe 37d8 e5bd fd29 47be
00000010: e73b 4bbd 7d6a 91be f57c 6d3d ade2 01be
00000020: 0669 a9be 0cab b83d a162 be3d 626f 803d
00000030: 2a18 b53d 4ab1 17bd 11d3 23be c4d5 c2bd
00000040: 34b5 b8be ad9a dfbd ba0c eb3d 7612 20bd
00000050: ecb5 8abc a51f e4bd 3bdc 8cbe 0456 043e
00000060: 41f2 3e3e 1183 12be f22d 00be 3534 bdbb
00000070: 5920 6abd 82ed 29be 55c1 d53d 394b 2abe
00000080: 92f5 13be aae1 24bd 1562 6abe 0e55 4bbe
00000090: 6875 cb3c 8d9a 453e d48d bcbb 9bb6 14be
000000a0: 2bd1 883c 4b41 8ebe ba47 943d 0340 88be
000000b0: 9fe7 20bb 3b22 9cbd a5bf 81be fed5 b73d
-0.0074698445 -0.2784462 -0.1122288 -0.19449611 -0.049617674 -0.28401557 0.057980496 -0.12684126
-0.3308794 0.090169996 0.09296156 0.062712446 0.088424996 -0.03703431 -0.15998484 -0.09513429
-0.36075747 -0.10918174 0.11477037 -0.039080106 -0.01693245 -0.11138848 -0.27511773 0.12923437
0.186471 -0.1430781 -0.12517527 -0.005774046 -0.057159755 -0.16594508 0.10437266 -0.16630258
-0.14449146 -0.040254273 -0.22888978 -0.19856665 0.024836257 0.19297238 -0.005754212 -0.14522783
0.016701302 -0.2778419 0.07240243 -0.26611337 -0.002455212 -0.076237164 -0.25341526 0.08976363

dense1.1.conv.1.running_mean f4 [48]
00000000: d7fb 6a3c f2b0 42be ddad 953d ef89 023e
00000010: 2ee9 46be 25d6 fb3d 4e64 f3bc f5d0 833e
00000020: 9ca2 043e f387 f33d 3cce 05bd ea5d 55be
00000030: dbd0 08bd fd48 00be 3485 71bd 4883 54be
00000040: e374 a9bc ed7f bf3c 6f78 51be fe06 61bd
00000050: 6609 8e3d be9c a53e 04c0 e4bd ca09 e2be
00000060: fee1 e6bd 96ce 0cbe 09fd dc3d 5689 cfbb
00000070: 260e 353c fb8f 863d de73 6ebe 59a6 85be
00000080: 5b22 3cbd cce0 aabe abce 90bc 3f90 283e
00000090: d8e5 013e c573 28bd 40fa 8abd 8431 743d
000000a0: 4f1c 3fbe fd47 67bd f14d 76be 8bd3 8f3d
000000b0: 803d 873c b2c9 8d3a 393e 9e3d 351c 51be
0.01434227 -0.19012812 0.073085524 0.1274793 -0.19424888 0.12296704 -0.029710915 0.2574536
0.12952656 0.11891165 -0.032667384 -0.20836607 -0.033402305 -0.12527843 -0.058964923 -0.20753205
-0.020685619 0.02337643 -0.20456098 -0.05493831 0.06935386 0.32346147 -0.111694366 -0.44148093
-0.11273573 -0.13750681 0.1079045 -0.0063335104 0.0110507365 0.06570431 -0.23286387 -0.26103476
-0.0459312 -0.3337463 -0.017676672 0.16461276 0.12685335 -0.04112603 -0.06786013 0.059617534
-0.18663143 -0.056465138 -0.2405317 0.070227705 0.016508818 0.0010817556 0.07726712 -0.20420916

dense1.1.conv.1.running_var f4 [48]
00000000: ff57 223a 8b4b ad3c 075e 113c 20ec ea3b
00000010: 3d0a aa3c 1456 6a3c 14df 023d 8052 be3c
00000020: ee0c 2e3c 68d9 6b3c 75f9 e03c aa4f 003d
00000030: 775c 0c3c a343 293c ce98 603c 9736 a83c
00000040: 2ae1 f93b ce1a 173a a13f bd3c a619 063c
00000050: 9494 153d 3b5b 083d f23f 203c 1743 943c
00000060: e2a8 e53c 91df 943c be0f ce3c 5b2e 1d3a
00000070: 102a 233d 7de2 0f3c 6dfc 1e3d 26a1 383c
00000080: d494 9f3b 08fa ab3c c1ec 523c c994 5b3c
00000090: 6ae6 723b e4f1 a13c 6cc7 543c 6926 573c
000000a0: aa65 b93c c937 9a3c f32b 923c 7947 943c
000000b0: 7989 3d39 d400 473c 6ba7 ff3c e530 293c
0.0006192922 0.021154186 0.0088725155 0.0071692616 0.020756835 0.014302749 0.031951025 0.023232698
0.0106232 0.014395095 0.0274627 0.031325974 0.008566967 0.010331067 0.0137083065 0.020533843
0.0076257186 0.0005764187 0.02310163 0.008184826 0.03651865 0.03329013 0.009780871 0.018098397
0.028034631 0.018173011 0.02515399 0.0005995982 0.039835036 0.008782026 0.03881495 0.0112688895
0.0048700366 0.020993248 0.012873829 0.013402172 0.0037063607 0.019768663 0.012986999 0.013131716
0.022631485 0.018825429 0.017843222 0.018100487 0.00018075657 0.0121461935 0.03120776 0.010326599

dense1.1.conv.3.weight f4 [12, 48, 3, 3]
00000000: e0bb 7dbb e201 0cbd bb81 fd3b bf2a c33c
00000010: 4fb9 913c 7489 aa3c 788e 27bc 1ac5 95bc
00000020: a1a8 fbbc f518 4a3e 488d 0f3e 0643 d53d
00000030: 2f46 153d 750e 9a3e 23db eb3d 0212 353d
00000040: 4ccd c13d a78b 743d 7672 7f3d 323a 39bd
00000050: 6969 7a3d 46c0 123d ce32 bfbd 9e96 2339
00000060: d3f4 0c3e 6b81 03be 37c7 51bc ddb6 6abe
00000070: d13d 37be 008c 6bbc b5f1 5ebd 4402 d53c
00000080: bbd7 d53c b614 733d a5c1 153e f65e f83c
00000090: 780f 7b3e 4d4f 043e 19e2 a93d b247 853e
000000a0: c9f2 77bc 596d 5dbe 01c3 403e 1393 16be
000000b0: 78b3 8fbe 68a8 c2bd 23b3 fc3d 5ebb ae3d
000000c0: a27f 88bd f726 853d 0dec e53d e84c 2f3d
000000d0: 65cf a1bc d0fa 4ebe 0bf9 4cbd 15d7 ca3c
000000e0: 6df5 61be b326 903e c633 15be 6a15 e8bd
000000f0: e427 ff3c 9178 39be 30d4 7fbe 4d6b f4bd
00000100: de97 18be 904f 45bd 9844 a5be 8c9f e3bd
00000110: 1420 223e ca8f 36be ebc1 eebc 8b8f 88bd
00000120: b132 5f3d 8513 c9bd d144 f43c 9034 8abd
00000130: a785 06be fc33 3c3b deb7 6ebd feea 7e3d
00000140: e3db 703d 614f b5be dfe9 82ba bf5f 49be
00000150: e745 23be 445d 413e 25e9 173e 5c87 a93c
00000160: a283 863e f06b 093e f7bb ee3d 0416 52be
00000170: cff7 afbb a926 e43d 6cb5 1dbd 676e 29bd
00000180: b620 69bb be90 0dbe 0ba5 a6be ba18 fc3d
00000190: a212 2a3e a2dc 863d fa60 a3bd cda7 cfbb
000001a0: 57d4 15bc ead3 a8bd 892e 35bd 2fba a7bd
000001b0: a2b7 0dbe aae9 7dbe 5209 8abd ed1e 8bbd
000001c0: 76ae 03be d436 1d3e 20c1 98bd a952 bc3b
000001d0: d8dd 393e 60d4 38bd 9067 023e 2297 0b3e
000001e0: 8f53 7bbd 81ae 7c3d a314 423e b1eb 17be
000001f0: 7d5a ac3c d840 5a3c 4ed7 943c c736 b63d
00000200: 1d49 b73d 8094 16be a00e 203d ef6e 853e
00000210: 99c8 a0bd 249a 05bd 12e3 16bd 3742 9bbd
00000220: 54d1 8b3e b8b5 1b3e 21a6 613d 7487 033e
00000230: b82a 913d 8b59 df3c 48fb ebbb 5d95 73bd
00000240: fa8f 0e3e dd20 423e bfd2 463d 4f2b 5d3e
00000250: d8c9 f03d 88c6 cabd 9439 453e e050 1dbc
00000260: d2b0 7ebd dab2 29bd 0a3a 503d f699 7bbb
00000270: 0d3f 713c 3bd4 cd3c e033 e83c 6f34 1a3d
00000280: adc3 293d 8909 ae3c 1b38 78be a890 c4bc
00000290: 8055 823e ab68 7dbe 25dd 943a 7bff ff3d
000002a0: be57 263e 7eaa 7c3d c3ff 27bd 11f9 cb3d
000002b0: 7dff f6bc 1e88 91bc 18ee f6bb b4f8 23be
000002c0: aa5d 62bd f340 5bbd d6d1 553d adc3 843e
000002d0: b5b8 81bd 7ed0 c93d 502c 593e 8dd5 e73d
000002e0: d7ee 813c d248 513e 67f4 123e 594f 173e
000002f0: 90df 9f3d 570e 243d 265f bc3c 92cd d2bd
00000300: a64d f9bb 764b 8c3d e7b0 c4bd df28 52be
00000310: 2d08 253e e345 8f3c 1aba 7bbd 0ddd cd3c
00000320: 74a9 a0be 724b 0ebc ef54 0fbe b003 90be
00000330: 635d 98bc 1633 54bc d1a7 10bd cb62 6c3e
00000340: e7b9 c53e 8784 63be 8816 7e3d b82a 403e
00000350: 15bf e1be aa17 9bbd 0649 e2bd 10f2 12bc
00000360: f8a8 cdbb a070 50be 38ff 2dbe 510d cbbd
00000370: d0e6 d23d cafa a43d 3a55 0cbe c22a 74bd
00000380: 8f33 083f 7463 1c3e c6af 3c3e bdaa 1d3e
00000390: 15a2 263e 4119 c5bc 78ed 1c3e 4a7e 5ebe
000003a0: 3cc5 c4bd 0a83 fdbd 3835 193d 79f6 2a3d
000003b0: f8d8 5abd a499 d5bd 576b c2be 5dc0 33be
000003c0: 692c 26bc 7842 a3bd 3d9f e93c 70cd 093d
000003d0: 38fa b7bc f1a8 e53b 6484 6cba 2924 4cbd
000003e0: 1cd1 3fbd fa24 e0ba 99e9 b8bc b17e a23c
000003f0: 0954 813e 061b 8d3e 38af 513d 3e2f c8bc
-0.0038716719 -0.034181483 0.0077364123 0.023824094 0.017788557 0.020817496 -0.010226838 -0.018282462
-0.030720057 0.19736083 0.14018738 0.10413174 0.036443885 0.30089155 0.115164064 0.044206627
0.094629854 0.059703495 0.062365018 -0.045221515 0.061135683 0.035827897 -0.09335862 0.00015601
0.13765268 -0.12842338 -0.012803844 -0.2292132 -0.17894675 -0.01437664 -0.05442973 0.026002057
0.026103845 0.059345923 0.14624651 0.030318718 0.2451762 0.12920876 0.08295078 0.26031262
-0.015133568 -0.21623744 0.18824388 -0.14704542 -0.2806661 -0.09504777 0.12338855 0.08531831
-0.06664969 0.065015726 0.11226664 0.042797953 -0.019752214 -0.20212865 -0.050042193 0.024760762
-0.22066279 0.28154525 -0.14570531 -0.113322094 0.031146951 -0.18112399 -0.24983287 -0.119345285
-0.14901683 -0.04817158 -0.32278895 -0.111144155 0.1583255 -0.17828289 -0.029145202 -0.06668004
0.054491702 -0.09818176 0.02981797 -0.06748307 -0.13136922 0.0028717509 -0.05828082 0.062235825
0.05880345 -0.35412124 -0.0009987912 -0.1966543 -0.15944634 0.18883234 0.14835031 0.020694427
0.26272303 0.13420081 0.11656945 -0.20516211 -0.0053701173 0.11140186 -0.038503096 -0.041365054
-0.0035572476 -0.13824746 -0.32547793 0.12309404 0.1660867 0.06585051 -0.07977481 -0.006337142
-0.009144864 -0.082435444 -0.044233833 -0.081898086 -0.13839582 -0.24796167 -0.06740059 -0.06793008
-0.1285952 0.15352947 -0.07458711 0.0057471585 0.18151033 -0.04512441 0.12734818 0.13631871
-0.061358985 0.061689857 0.18953185 -0.14836003 0.021039242 0.013321124 0.018169072 0.08897167
0.08949492 -0.14705086 0.039076447 0.26061198 -0.07850761 -0.032617703 -0.036837645 -0.07580989
0.27308142 0.15206039 0.055090073 0.1284464 0.07088226 0.027264377 -0.007201586 -0.059468616
0.1392211 0.18957849 0.048540827 0.21598552 0.11757249 -0.09901148 0.19260246 -0.009601802
-0.062180348 -0.04143033 0.0508366 -0.0038391328 0.014724505 0.025125613 0.028345048 0.03764766
0.041446377 0.021244781 -0.24240153 -0.023994759 0.25455856 -0.24746959 0.001135741 0.12499901
0.16244408 0.06168603 -0.041015398 0.09959615 -0.030151123 -0.017765101 -0.007535707 -0.16012841
-0.055265106 -0.053528737 0.05220207 0.2593054 -0.06334058 0.0985422 0.2120831 0.113200285
0.015860958 0.20437935 0.14351045 0.14776362 0.07806313 0.040052738 0.022994589 -0.10293116
-0.0076081334 0.068503305 -0.09604054 -0.20523404 0.161164 0.01748938 -0.061456777 0.02512982
-0.31379282 -0.00868498 -0.13997243 -0.28127813 -0.018599218 -0.012951633 -0.035316292 0.23084562
0.38618395 -0.22218524 0.062033206 0.18766296 -0.44091097 -0.07572873 -0.11049084 -0.008968845
-0.006276246 -0.20355463 -0.1699189 -0.09914649 0.1029793 0.08055647 -0.13704386 -0.05961109
0.5320367 0.15272313 0.18426427 0.15397163 0.16272767 -0.024059894 0.15324962 -0.21727863
-0.09607932 -0.12378509 0.03740427 0.04173896 -0.053429574 -0.10429695 -0.3797252 -0.1755385
-0.010142424 -0.07971662 0.028518314 0.033643186 -0.02245818 0.007008665 -0.0009022413 -0.049839173
-0.04683028 -0.0017100864 -0.022572326 0.019835802 0.25259426 0.2755968 0.051192492 -0.02443659

dense1.1.conv.4.weight f4 [12]
00000000: 6682 e93e 4720 133f df8d 083f 09a1 bd3e
00000010: d6bc c43e 415a fe3e 6843 b83e c0fc b93e
00000020: ea65 ff3e 0787 ea3e c648 bb3e 1faa c03e
0.456073 0.57471126 0.5334148 0.37036923 0.3842532 0.49678233 0.35988927 0.36325645
0.49882442 0.45806143 0.3657896 0.37629792

dense1.1.conv.4.bias f4 [12]
00000000: 3f2a eabd bb07 c8be 59e1 a5be abdd b43e
00000010: c99e 983e ded1 d2bc 5095 6f3e 265b b83e
00000020: a2c9 26be 53ec e73d 8de6 183e 506a dd3c
-0.11433839 -0.39068398 -0.3239849 0.3532537 0.29808643 -0.025734838 0.23396802 0.3600704
-0.16287854 0.11324372 0.14931698 0.027028233

dense1.1.conv.4.running_mean f4 [12]
00000000: e131 eabb c885 38be 31e7 de3c 5e3d d0bd
00000010: 132c 11be 9dd5 f8bd 34c6 14be 9932 8dbc
00000020: 8fc1 aebd 3ff0 60bc da88 34be ef1a 7ebe
-0.0071470593 -0.18019783 0.02720985 -0.10167955 -0.14176969 -0.121501185 -0.14528733 -0.01723604
-0.08533012 -0.013729154 -0.1763033 -0.24814962

dense1.1.conv.4.running_var f4 [12]
00000000: a68d 633c a7c7 bf3c d8a2 633c f4f7 fc3c
00000010: 7cea a63c 21e0 d43c f772 0c3d a3a5 0d3d
00000020: ccd6 893c 390c e43c 1349 bd3c dee4 933c
0.013888752 0.023410631 0.013893805 0.030879952 0.020375483 0.02598578 0.034289327 0.03458179
0.016826056 0.02783786 0.023106134 0.018053468
